traffic_sign_classifier_lenet_v2.onnx (onnx, 458035 bytes, 12 tensors)

sequential_2/dense_8/MatMul/ReadVariableOp:0 f4 [64, 7]
00000000: 00de 48be 1484 e3bb 5993 ecbd b8b0 cbbe
00000010: 588c ad3d 4f54 3c3e 15da 52be 585c 933e
00000020: 6557 133e 1510 28be aa52 e93d ee51 babd
00000030: 8cc6 a43e d082 89be 9fb7 653e 3aa4 fb3d
00000040: 57cd 583e a22a 50be 52c0 533e 20b6 b1bd
00000050: 1cb0 f1bd 7e7c 5a3e febe 5b3e fe9c d0bb
00000060: ff16 473e c4c5 0ebe 3aed d1bd c17c d53d
00000070: a62c 24be 86bd 133e 3de0 fd3d 2921 b43e
00000080: 09ec bcbe 7d16 3b3e 8c82 f4be 72c2 b5bd
00000090: 51e8 673e 2144 903e b76b 62be c451 b33d
000000a0: 2e90 4bbe 862a 4cbe b261 bebc 8590 88bd
000000b0: 4257 9cbe 8cbf 193e e68c adbe cfb3 bd3e
000000c0: 0924 b8be f345 dcbe 50be c6bd e46f 8bbe
000000d0: 9c16 033d 07c1 afbc c05c 8b3d 3f08 65be
000000e0: 5232 f1bc 0463 c33d ef61 493d 0791 f13d
000000f0: d9d4 d8bd 942d 253e 8baf 953e 213c 1d3e
00000100: 3b1d 84be 404f 533d ac81 a7be 19c4 86bd
00000110: 08f6 85be 7fe9 97be f7b4 973d af71 6bbe
00000120: e096 2a3c eac0 60be f046 3cbe f795 3f3e
00000130: 20b3 ebbc 0054 1f3c 5385 1ebe c742 c3bd
00000140: ff25 c33e a780 ad3e 8b65 f3be 9227 cabe
00000150: 4d31 2abe d96e 8ebe d52e 9a3e a6b1 02bf
00000160: 8035 583e 63dc a0bd 90b4 903d a083 463e
00000170: f246 8e3e b061 1abc 4c7f 4d3e c4ab 2d3e
00000180: 3a96 3f3d daf3 4c3e 95b4 523d f205 913e
00000190: c2fb 01be 0e5c dfbd 4567 2abd 142f 8bbe
000001a0: bab1 95be 9e37 7c3e 1535 273e 834e efbd
000001b0: 884b 823e 465d ec3d 4011 27be d8a2 cbbd
000001c0: d010 87bd ba54 41be 5f63 c6bd fcf9 febd
000001d0: 8be9 60be 2984 b2be 180e 413e c730 18be
000001e0: 4b1e a43d 0e97 fe3d 440b 0bbe 02fd 45be
000001f0: 5750 813d b5f6 7c3c 2fbf 0dbe c78a 893b
00000200: 616b 413e 97da c53d cbe3 f9bd 8e1d b4be
00000210: 24bd 9ebd 07a6 a8bd f70b fdbd 11d1 88be
00000220: 84f7 a0be b8b5 2a3c e82b aabe b3ea 8bbe
00000230: b17d 583d 7f7b 4cbd b9e4 93be 6985 ffbd
00000240: bf36 a4be ed2c 7bbe 38fa 723e fb09 6cbe
00000250: 31ef c2be e49f 3d3e 6ca3 e7bd 253d e6bd
00000260: a924 0bbf afa6 e7bc 7586 c33d 9419 393e
00000270: c880 973d 867b ef3c 314f 8a3d b2c7 5b3d
00000280: 66a9 d0be 14cc d63d 3ba1 c8bd 7959 b4bd
00000290: 6156 adbe 1c81 58be 04c6 4d3d 2ca4 35be
000002a0: a496 29be 5442 c9be 3581 d7bc b059 d8be
000002b0: 1d54 013e 8055 803e cb9e 39bd f5b6 963e
000002c0: 42b2 91bd 75c5 87bd 009b 2b3e 0eb3 913e
000002d0: bae0 0cbe 8ddb 8abe cac7 433e a9c9 4bbe
000002e0: f92b 033e e80c bebe d1c6 363e 75b1 163e
000002f0: dbee f73d 0aba 84be 9640 ea3b 3e59 7c3e
00000300: c97d 53bd d53c 7cbe d36c 76be 0cd0 43be
00000310: aa6c 93be 59b9 7a3e 77c5 adbe 30ab f33d
00000320: 8b09 f9be c422 843c 076a 0dbf c903 e73d
00000330: f5dc fc3d 61b4 a73d 6871 b3be 7f9f c43d
00000340: efa3 053e ec67 14be a337 7a3d 37dc 963e
00000350: ede2 363e 5f2f 6e3d 9b0a 593e 14b5 94be
00000360: 06ef 9d3d b71e 473e c4b4 5ebd 59e5 2dbe
00000370: 1f52 643d b62a ccbd 2211 45bc 055a cdbe
00000380: 5599 5a3e 0c11 21be 3202 363e 7e97 d9bd
00000390: 5ad6 b3bd 283e 98be 7227 b9be 00ad ce3d
000003a0: b7f1 953e b90b 0abd ba07 663e 9ade e9be
000003b0: 2555 b03e 4ed1 b6be 40d0 013e 98f0 983e
000003c0: 1da8 0cbe 67d0 8a3e 9e21 edbe d186 903e
000003d0: 66ca 8f3e 7fc2 aebd fe03 413e 7e6c 97be
000003e0: 279f a13d b4aa 9ebd 51c6 90bd d499 b6be
000003f0: 3c93 52bd 7ccd a13e fa46 4dbe c80d 9a3e
-0.19615936 -0.006943235 -0.11551542 -0.39783263 0.08474034 0.18391536 -0.20591004 0.2878139
0.14388807 -0.16412385 0.1139272 -0.09097658 0.3218273 -0.26857615 0.22433327 0.12287183
0.21172081 -0.20328763 0.20678833 -0.08677316 -0.11801168 0.21336553 0.21459576 -0.006366371
0.19442366 -0.13942629 -0.102503255 0.104241855 -0.16032657 0.14427766 0.12396286 0.3518155
-0.3689883 0.18270297 -0.4775585 -0.08874978 0.22647215 0.28176978 -0.22111402 0.0875583
-0.19879219 -0.19938096 -0.023239944 -0.0666819 -0.30535322 0.15014476 -0.3389656 0.37051246
-0.35964993 -0.43022117 -0.09704268 -0.27233803 0.032003984 -0.021454347 0.068048 -0.22366427
-0.02944294 0.0954037 0.049165662 0.1179524 -0.105874725 0.16130668 0.2923549 0.15354969
-0.2580355 0.05158925 -0.3271612 -0.065803714 -0.2616427 -0.2967033 0.07407563 -0.22992586
0.010411948 -0.21948591 -0.18386436 0.18709551 -0.028771937 0.009724617 -0.15480547 -0.09534221
0.38114926 0.33887216 -0.4753841 -0.39483315 -0.1662037 -0.27818945 0.30113855 -0.5105232
0.21114159 -0.078545354 0.070656896 0.19386148 0.27788502 -0.009422705 0.20068091 0.16960055
0.046774127 0.20014897 0.051441748 0.28324848 -0.12693694 -0.1090623 -0.04160239 -0.27184355
-0.29237157 0.24630591 0.16328843 -0.11684897 0.2544825 0.11541228 -0.16315174 -0.09943169
-0.065950036 -0.18879977 -0.09686922 -0.124500245 -0.2196409 -0.34866455 0.18853033 -0.14862357
0.080135904 0.12431155 -0.13578516 -0.19334796 0.06314152 0.015439679 -0.13842462 0.0041974518
0.18888618 0.09660833 -0.12201651 -0.35178798 -0.077509195 -0.08234792 -0.12355798 -0.26722005
-0.3143884 0.010419302 -0.33236623 -0.273275 0.052854244 -0.049922463 -0.2888544 -0.12476618
-0.32073018 -0.24528857 0.23728263 -0.23050682 -0.38073114 0.18518025 -0.11310467 -0.11242131
-0.54352814 -0.028277723 0.0954713 0.18076164 0.0739761 0.029233705 0.06753386 0.05365724
-0.4075424 0.104881436 -0.09796377 -0.08806128 -0.33854964 -0.21143001 0.05023767 -0.17738408
-0.16561371 -0.39308417 -0.026306728 -0.42255926 0.12629743 0.2506523 -0.045317452 0.2943646
-0.07114078 -0.06629459 0.16758347 0.2845692 -0.13757601 -0.2712063 0.19119182 -0.19901146
0.12809743 -0.37119222 0.1784928 0.14716132 0.12106105 -0.25923187 0.0071488125 0.24643418
-0.05163363 -0.2463258 -0.2406495 -0.19122332 -0.28793842 0.24484767 -0.33939716 0.11897886
-0.48640093 0.016129859 -0.5523991 0.11280019 0.12346832 0.081887014 -0.3504746 0.09600734
0.13050817 -0.14492768 0.061088216 0.29464886 0.17860003 0.058150645 0.21195452 -0.29044402
0.07711606 0.1944531 -0.05437161 -0.1698202 0.05574238 -0.09969084 -0.012028011 -0.40107742
0.21347554 -0.15729159 0.17774275 -0.10624598 -0.08781119 -0.2973492 -0.36162907 0.10091591
0.29285976 -0.033702586 0.22463885 -0.45677644 0.3443996 -0.35706562 0.12677097 0.29871058
-0.13736005 0.27112123 -0.4631471 0.28227857 0.28084105 -0.08533191 0.18849179 -0.2957496
0.07891684 -0.07747403 -0.07069076 -0.35664237 -0.051409945 0.31602085 -0.20046607 0.3008864

sequential_2/dense_8/BiasAdd/ReadVariableOp:0 f4 [7]
00000000: f2cc 5dbb b191 78be f2e9 b7bd 5592 3b3e
00000010: 01d8 cf3d ae4d 043e d379 07be
-0.003384408 -0.24274327 -0.089801684 0.1831754 0.10148621 0.12920257 -0.13230066

sequential_2/dense_7/MatMul/ReadVariableOp:0 f4 [128, 64]
00000000: 403c 42be 8bb3 58bc 3569 9f3d 1b23 983b
00000010: 81e0 22bc 87f0 383e 2be1 ee3a cbc5 b1bc
00000020: 9181 42be 6b12 513d 26d3 683e 23e7 8fbe
00000030: 927a d53d 3cc3 993c a7a8 153d 5e8d 0cbe
00000040: 3fc6 51bd 5455 6ebe c9e5 5c3d d5d3 3cbe
00000050: 42cb 03be 28cb 94bd cfe3 c83d 62f2 03be
00000060: 7e18 d23b 5dce c5bb 0c93 7c3e 8362 c9bd
00000070: 3ae5 54be e6bd 6d3e fd71 b53d 5b7d f2bc
00000080: 1987 593e 0ae4 4cbe a688 5f3b bacd 8dbd
00000090: 8983 27be 64d5 29bd 8344 a9bd 6200 b2bd
000000a0: 0836 fc3c 8783 403e b1ab d3bd 0c71 0a3d
000000b0: 3b3c abbd b4e7 dc3d 8bdb b6bd 64a0 463d
000000c0: bf18 67be c85a 4bbe f038 633e 4633 5a3d
000000d0: 1a9e 8bbd 3a96 0fbe 2c55 4a3e 662b 2e3d
000000e0: 83b2 39be 36e0 81bd 650e 87bb 6b26 ca3c
000000f0: c89f d5bd de6f ee3d 7fe7 f9bd cbb8 d93c
00000100: ad47 32be 4e87 013e 4400 b53d 03ac e0bd
00000110: 5516 143e df5a 09bd 2201 3c3e d708 25be
00000120: f3d4 e73d b1df c53d 5d6f ca3d beef 583e
00000130: 838c f8bd fdb0 433e b0ca ff3d b0f2 ac3d
00000140: c42b 743d ca30 afbc 5656 e8bc fc1f 923d
00000150: 189b c5bd abf8 223d ff1d ad3d 7684 013c
00000160: 0631 77be 8608 ed3c 7856 9dbd d845 f3bd
00000170: e091 a0bd 73ef 4abd 17fa a33d e519 1b3e
00000180: ba33 3a3e 9520 053c b257 23be 16f9 3c3e
00000190: 6806 d33d 9b06 9e3d 3d18 9cbd a55f 153e
000001a0: 4535 0dbb 9ef9 e13b 4373 dc3d d370 ddbd
000001b0: dd61 953d a0c9 8e3b 7cc1 2f3e 428e a3bc
000001c0: cf72 d5bd babf 40be 0dde 2b3c 70ed 453e
000001d0: c304 023e ebe5 423d 2c6b 1d3e b0ee 023e
000001e0: fac7 19be 5f8a 003e 73a5 0cbe f30a d2bd
000001f0: 0e4e 29be 85d3 8d3d 78ca b6bd 2d63 a43c
00000200: 5d42 59be 18de 0dbd 648f d2bd 14be 623e
00000210: 1b5e d5bd 3906 493e 7cef 4bbe 282b f43d
00000220: 336b 043d 5a18 c8bb b167 2cbe 9361 09be
00000230: f5be ee3d 2c24 a6bd aa4c 4c3e 99df 89bc
00000240: 3e81 0abe 4f4c afbd f5b1 153e 1165 7abd
00000250: 296b 0b3e d228 233e c1a4 1fbc 69bb 2bbe
00000260: 4231 8bbe f1f2 27be 22ff 78be e0fc 45bd
00000270: 68bb 313e ef0c 023e 9cc1 0f3e f506 84ba
00000280: 9a5d 603e 461e f9bd 616d b03d cb42 25bc
00000290: 5ceb fe3d 176a 243e 4f13 27bd 2d75 f4bc
000002a0: 7b94 a13d 7d6f dabd 81b0 0b3e c44c 4cbd
000002b0: 4f47 82bc a9ce 513e 976b 4d3e 1373 a2bc
000002c0: 2f31 9f3c e7b0 fd3d 2b10 2ebe 8bda 803e
000002d0: 3123 10be 7b55 153e 8564 07be 335c 3a3d
000002e0: 7fea 7b3c 0510 71be ecd7 82bd 9cc7 d83d
000002f0: 650f 093c 5add 0ebe fb1f 4bbe f91c 1c3e
00000300: cfea eabd fd91 b9bd d94c d53c eebf b33d
00000310: 0bcb 563d 35c1 04be 230a 813d 97c6 1b3e
00000320: 9e32 133e 310a fcbb 361c 603c 1fa4 d13d
00000330: 41d9 2ebe ca89 083e f321 6ebc bca0 2c3e
00000340: 5852 af3d 6663 7a3d f387 2ebd 330e 71bd
00000350: 7f2c 543e eddd 633e 54d0 383d 6c32 f0bc
00000360: 7de5 abbe 88de b0bd ed83 82bd 5774 7c3e
00000370: 3366 e13d e30b 07bc 6435 8e3d e2fc d33d
00000380: bafe 0ebc f449 113e 58cb d53c 21b8 bdbd
00000390: b9a7 6c3d 6105 743e 4415 e73c a1fd 593d
000003a0: 8c62 15bd 84b9 7fbd f45d ac3e f830 733c
000003b0: 73ff 39be ddbb 9bbd 413e f43c 3071 55be
000003c0: 929e a73d 91ef f6bc 1471 08be 27e2 3b3e
000003d0: e7a6 43be 56f8 e53d 5fa0 953d edae 7e3d
000003e0: 15a9 8d3e ed66 2cbe 84cb cb3c b710 023e
000003f0: 739e b93d 85d8 613e 1e26 f53d 743f 8b3e
-0.18968296 -0.0132264 0.077837385 0.004642857 -0.009941221 0.18060504 0.0018225064 -0.02170076
-0.18994738 0.051042955 0.22736797 -0.2810603 0.10423769 0.018769853 0.036537793 -0.13725802
-0.051214453 -0.23274738 0.053930078 -0.18440183 -0.12870505 -0.072653115 0.09809076 -0.1288543
0.006411611 -0.0060365633 0.24665469 -0.09833243 -0.20790568 0.23216972 0.08859632 -0.02960079
0.21242942 -0.20008865 0.0034108548 -0.06924005 -0.1635877 -0.04146327 -0.08265021 -0.08691479
0.030787483 0.18800174 -0.10335482 0.033799216 -0.083610974 0.10786381 -0.08928593 0.048492804
-0.22568034 -0.19858849 0.22189689 0.053271554 -0.06817265 -0.1402215 0.19759053 0.042521857
-0.18134503 -0.06341593 -0.004121589 0.024676522 -0.104308665 0.11642431 -0.122023575 0.026577374
-0.17410155 0.12649271 0.08837941 -0.10970309 0.14461644 -0.033533927 0.18359807 -0.16116653
0.11319914 0.096618064 0.09884522 0.21185204 -0.121361755 0.19110484 0.124898314 0.084447265
0.05961205 -0.02138557 -0.02836148 0.07135007 -0.096487224 0.03978793 0.08452987 0.007905116
-0.24139795 0.028934728 -0.07682508 -0.11878556 -0.078403234 -0.049544763 0.08006685 0.15146597
0.18183795 0.008125444 -0.15951422 0.18454394 0.10303956 0.07716104 -0.076218106 0.14587267
-0.0021546644 0.0068962118 0.10764172 -0.10812535 0.072940566 0.0043575317 0.17163652 -0.019965295
-0.104222886 -0.18823138 0.010489953 0.19328856 0.12697129 0.047582548 0.15372914 0.12786365
-0.15017691 0.12552784 -0.13734989 -0.10255995 -0.16533682 0.0692511 -0.089253366 0.020066822
-0.21216722 -0.034635633 -0.10281256 0.22142822 -0.1041834 0.1963128 -0.19915575 0.11922294
0.032328796 -0.0061064186 -0.1683643 -0.13416128 0.11657516 -0.08112368 0.1995112 -0.016830252
-0.13525864 -0.085594766 0.14618666 -0.06113154 0.13615097 0.1593354 -0.00974387 -0.1677071
-0.27186018 -0.16401269 -0.24316075 -0.048336864 0.17356646 0.12700246 0.140387 -0.0010072874
0.21910706 -0.12163977 0.08614612 -0.0100867255 0.12447235 0.16056095 -0.0407899 -0.02984103
0.078896485 -0.10665796 0.1364155 -0.049877897 -0.015903143 0.20488991 0.20060574 -0.019830262
0.019432632 0.12387257 -0.16998355 0.25166735 -0.14075924 0.1458339 -0.13221939 0.045498084
0.015375732 -0.23541267 -0.0638884 0.105849475 0.008365487 -0.13951626 -0.19836418 0.15245427
-0.114705674 -0.09061048 0.02603762 0.08776842 0.05243973 -0.12964328 0.063007616 0.15212475
0.14374778 -0.0076916446 0.013678601 0.10236382 -0.17075063 0.13333812 -0.014534461 0.1685819
0.08560628 0.06112995 -0.04261012 -0.058851432 0.20720099 0.22252627 0.045120552 -0.029320918
-0.33573523 -0.086361945 -0.06372819 0.24653755 0.11005821 -0.00824258 0.06943777 0.10350968
-0.008727724 0.14188367 0.026097938 -0.092636354 0.05777714 0.23830177 0.028208382 0.053220395
-0.036470935 -0.06243278 0.3366543 0.014843218 -0.18163852 -0.076041915 0.029814841 -0.20843959
0.08184542 -0.030143531 -0.13324386 0.18347989 -0.19106637 0.11229007 0.07305979 0.06217854
0.27668062 -0.16836138 0.024877317 0.12701689 0.09063425 0.22055252 0.11970161 0.27196848

sequential_2/dense_7/BiasAdd/ReadVariableOp:0 f4 [64]
00000000: 9ae0 e33d e538 4f3e 9c8a 3a3c a46f a2bd
00000010: a66c 993e 685d bebd ed05 da3e 862e 923e
00000020: 2110 a53d 47b5 8c3d 2b7c 04bd 7127 b43e
00000030: b902 fe3d 38ef f9bd 3887 40be 6a26 663d
00000040: 74c9 833d 3b90 f2bd 8780 84bd c672 703c
00000050: 5379 f3bd 6217 c33d 7848 06bd 8890 003b
00000060: 3a61 a73e 2b85 713e 5bcf 223e 537d a6bd
00000070: ec65 d43d 6c2b 6ebd e94d 40be 44e8 563e
00000080: fae9 df3c f057 293e 910d 5f3d 0e45 a23c
00000090: 7b2a a73d 2ead 193e 7813 cb3d afec d93e
000000a0: 492d a93d d4c0 c1bb 0937 e339 c909 053e
000000b0: ceaf 073e 3b56 0c3e 3efa 043c 8f38 103e
000000c0: deaa aa3e b5b7 a83e a33f 1bbe d5ac bdbc
000000d0: df6e dd3e 6b1f 843d 5fdd 3e3e 98ac 72be
000000e0: 7105 79be 882d 163c 68d1 f53d a371 863d
000000f0: 055e 2a3e 5401 ccbd 5bc0 b23e 110f 703e
0.11126824 0.20236547 0.011385586 -0.0793145 0.29965705 -0.092951596 0.42582646 0.2855112
0.08059717 0.068705134 -0.03234498 0.3518634 0.12402863 -0.122038305 -0.18801582 0.05618898
0.064349085 -0.11843916 -0.06469827 0.014675802 -0.11888375 0.09525944 -0.032783955 0.0019617397
0.32691365 0.23585956 0.15899412 -0.081293724 0.103710026 -0.05814688 -0.1877972 0.2098704
0.027333248 0.16537452 0.054456297 0.019808318 0.081623994 0.15007469 0.09915823 0.42563388
0.082605906 -0.0059128795 0.00043337818 0.12992014 0.13250658 0.1370477 0.008116303 0.14084075
0.33333486 0.32952657 -0.15160994 -0.023153702 0.4324865 0.06451305 0.18639134 -0.23698652
-0.24318482 0.009166129 0.12002832 0.06564643 0.16637428 -0.09961191 0.3491238 0.23443247

sequential_2/dense_6/MatMul/ReadVariableOp:0 f4 [48, 128]
00000000: 012a ebbc a3bd e5bd e834 8cbc d85c e7bc
00000010: db08 d1bc 21cd 543c b378 0e3d c222 bebd
00000020: fd17 bbbb 2961 63bd cdbb 6bbe ee2b 21be
00000030: 2dec 19bc 9fd8 8a3e ca60 073d 7213 9ebd
00000040: 0689 17bd dbda 3fbd 6d55 a1bc 335d 68bd
00000050: 5868 823d a1e2 983d 08f7 903e 1bf7 2bbe
00000060: f36d fe3b 0959 28be 3f95 08be 2925 4d3e
00000070: ddce 8cbd 954f 5f3e 1a79 2f3e 3a2e b7bd
00000080: 24ab f5bc dfa9 49be f567 b2bd bd65 d93d
00000090: 70db 783e 634d a5bd 0652 40bd 956c 953e
000000a0: 323c 99bd a167 b93d 710c 8fbd 14c4 c6bd
000000b0: 4e17 223d 9bb1 a2bd e081 0ebd 0904 05be
000000c0: 9855 143e 46de fcbc 2b03 c7bc aac6 a53a
000000d0: 1738 a03d 5d6a 07be c2c6 d93b cc3c 1bbe
000000e0: d3b5 c0bc 5830 7a3e 5974 7dbd c82f a73e
000000f0: 1499 c5bc fe16 003e 297d a6bc ea03 0ebe
00000100: 665a 28be 58f9 11be b147 fa3d 0d17 e93d
00000110: 4eac d63d 723d 833d 9067 bf3d 09f5 d03d
00000120: f5db b03d f07e 0ebe f00a 04be 4f54 63be
00000130: d875 7bbc 5707 b3bd 5243 ec3d 75b4 bf3d
00000140: 7408 813e 8d2e cabd 12b6 b13b 67b8 07bd
00000150: 3e3b b8bc e668 ce3d 040b 053e dcd0 05be
00000160: 6c94 753e 1b28 a3bd ae9a 653e d6ab 363c
00000170: a4a1 1c3e 7ad4 29be 4050 3f3e 8c05 abbd
00000180: 174e f0bd 2e5a 9ebd ebb3 da3d 6b6b 2dbd
00000190: cb54 9f3e dfb1 e43b 5cdf 22be a364 2b3e
000001a0: 74e8 a53e 4b44 93be d583 373e 3be1 93bd
000001b0: 5be6 5dbd ca6d 6f3e 6699 e3bd 4bc3 31bd
000001c0: 5b6e ee3b 72b7 b4bd 0837 313e 36e7 9abd
000001d0: 87f0 97bd 5a0a dabb a598 9f3e 8ccc 39bd
000001e0: e25d 43be 91aa 45bd cbde 29bd 4b80 1d3e
000001f0: fa16 2cbc 5350 e43d 2b8c 0dbe 26fb f7bd
00000200: 5f22 743d f958 cfbc bd65 643e 4e73 bebd
00000210: 0ad6 353d 7be2 473d 59ae c0bb fee8 1abe
00000220: 7c82 253e 5f84 e93d 0b27 863e 81be 21be
00000230: 9ff3 d0bd 6f72 5c3e 89b2 01be ef6a f73d
00000240: cfaf f53d e2b2 91bd f3fe bfbd eefc 12be
00000250: c408 0abe e887 aabc 347e 1d3e ba1e 05be
00000260: 58fb 0a3e 479d 99be 3ba5 ad3d d889 83bd
00000270: 2499 8dbd 5cf3 b13c da6f 9a3d 8074 2bbd
00000280: e0b7 23bd 9cf8 59bd 40ab 503e f0ba dfbd
00000290: 145e 6f3e 4232 2bbc 73c7 433e 8dd4 0abe
000002a0: 31a7 9abd ea90 20be 3030 9e3e 2cbc 50be
000002b0: 2a83 0fbd 3034 8fbd a58f 9b3d 283f 9bbd
000002c0: 6047 033e 4a6a 183d 2437 41be 8b5f 3b3d
000002d0: 245c d03d 12ff a03c 6885 d83c 9575 1a3e
000002e0: 7080 5a3d c744 68be b163 4d3e 3d10 13be
000002f0: e053 07bd c7f2 2bbd 086e a43d 4c89 3b3e
00000300: 5872 19be 3563 7b3c 220a e9bc c32c 7fbc
00000310: ebb3 1c3d b88b d33c cdcc a0bd 39a2 55bc
00000320: 70de 843d 1672 62bd c00a 06be ccd7 a1bd
00000330: 806f f1bd e071 573d d33f 0f3e a1b2 4cbd
00000340: 506f f5bd b06f 923d 01ac b7bc 1ec5 b4bc
00000350: 8a25 173e f8e6 4b3e 708e 98be 66b8 8dbd
00000360: 1812 1339 097e 0f3d ecab a83c 077d cabc
00000370: e81a 4bbe a7d0 babd 1fbd 103c 3ef2 c43c
00000380: d715 413e 722c 10be 8bab 29be 2ab9 cc3c
00000390: 1436 9cbd 09bd cc3d e60c 2b3e bf95 753d
000003a0: 944a 56bd 85fe 42be 3ab8 0bbd 19c4 a33d
000003b0: b0af 0cbe c593 a33d 0c8f 5cbe ca64 75bd
000003c0: ebaf 01be 4044 0b3e 0e30 c23d 778c 08be
000003d0: e8c0 6a3d cf84 1a3e 0208 1f3d fd22 603c
000003e0: a54c 803d c505 a8bd c1bd 093d d073 4a3e
000003f0: cfdb 2d3e 94e5 a43c 57e8 fa3d c762 41bd
-0.028706552 -0.11217811 -0.017115071 -0.028242514 -0.025516918 0.01298836 0.034783076 -0.09283973
-0.0057096467 -0.05551258 -0.23020859 -0.15739414 -0.009394688 0.27118394 0.03305129 -0.07718553
-0.03699591 -0.046839576 -0.019694054 -0.056729507 0.06367558 0.07465101 0.2831347 -0.16793482
0.007764572 -0.16440214 -0.13338183 0.20033707 -0.068753935 0.21807702 0.1713604 -0.08944364
-0.029988833 -0.19693707 -0.087112345 0.10615108 0.24302459 -0.08071401 -0.046953224 0.29184404
-0.074821845 0.09052969 -0.06984795 -0.09705368 0.039573006 -0.07944032 -0.034791827 -0.1298982
0.14485776 -0.030867707 -0.024293503 0.0012647707 0.07823198 -0.13224168 0.006646008 -0.15159911
-0.0235242 0.24432504 -0.061878536 0.32653642 -0.024120845 0.12508771 -0.020323353 -0.1386868
-0.16440734 -0.14255273 0.12220705 0.1138135 0.10482083 0.06408204 0.09345925 0.10202987
0.086357035 -0.1391561 -0.12894797 -0.2220013 -0.01534792 -0.08741634 0.11536278 0.09360591
0.25201762 -0.0987216 0.005423316 -0.033134844 -0.022489186 0.100786015 0.12992483 -0.13067955
0.239824 -0.07966634 0.22422287 0.011149367 0.15296036 -0.1658496 0.18682957 -0.08350667
-0.117336445 -0.07732044 0.10678848 -0.04233877 0.3111938 0.0069792117 -0.15905517 0.16737609
0.3240391 -0.2876304 0.17921384 -0.07220694 -0.054174762 0.23381725 -0.11113243 -0.043399137
0.007276339 -0.08824052 0.17306149 -0.07563631 -0.07418924 -0.006654066 0.31171146 -0.045361087
-0.19078782 -0.048258368 -0.041472238 0.15380971 -0.010503525 0.11148133 -0.13823001 -0.1210845
0.05960309 -0.02531098 0.22304435 -0.092993364 0.044393577 0.048799973 -0.005880159 -0.15127942
0.16163057 0.11402201 0.26201662 -0.15795328 -0.10202717 0.21528028 -0.12665762 0.12080943
0.119964235 -0.07114197 -0.093747996 -0.14354298 -0.13479906 -0.020816758 0.15380174 -0.13000003
0.13572443 -0.30002806 0.08478781 -0.06422776 -0.06913975 0.021722488 0.07540865 -0.04185915
-0.03997028 -0.053215608 0.20377827 -0.109243274 0.23375732 -0.010448994 0.19119053 -0.13557644
-0.075514205 -0.1568028 0.3089614 -0.20384282 -0.035037197 -0.06992376 0.075957574 -0.075804055
0.12820196 0.03721074 -0.1886869 0.045745414 0.101738244 0.019652877 0.0264308 0.15083916
0.053345144 -0.22682486 0.2005756 -0.14361663 -0.033038974 -0.041979577 0.08028799 0.18314093
-0.14985025 0.015343477 -0.028447215 -0.015574637 0.03825752 0.025823459 -0.07851563 -0.013039165
0.06487739 -0.055284582 -0.13090038 -0.07902488 -0.11788845 0.052598834 0.13989191 -0.04997504
-0.11984122 0.07150209 -0.022420885 -0.022066649 0.14760414 0.19912326 -0.2979617 -0.06919937
0.00014025753 0.035032306 0.020589791 -0.02471782 -0.19834483 -0.091218285 0.0088341525 0.024041291
0.18855987 -0.14079455 -0.16569345 0.024990637 -0.07627502 0.09996993 0.16704139 0.059957262
-0.052317217 -0.19042404 -0.03411124 0.07996387 -0.13738894 0.07987169 -0.21538943 -0.059910573
-0.12664764 0.13600254 0.09481822 -0.13334833 0.057312876 0.15089725 0.038825996 0.013680217
0.06264619 -0.082042255 0.03362823 0.19770741 0.16978382 0.020129003 0.122513466 -0.047213342

sequential_2/dense_6/BiasAdd/ReadVariableOp:0 f4 [128]
00000000: 03c4 9fbd d665 833d c0b2 5bbe 6a98 7c3d
00000010: f579 a83d 1077 99be 61e2 41be e494 063c
00000020: a31e 17be d2f7 72bb 4698 dabc cdb4 dc3c
00000030: 7acc d9bd 7c20 ce3c f44a c73d 7bf7 763c
00000040: 72cb 8e3d c37d 873d 05a1 093c 450c 353e
00000050: aa11 cf3b 7107 823d 684b 593d 11ef 053e
00000060: 442a 07be 9599 873e e306 173e 28e8 a93d
00000070: f100 63bb b9f4 333e b44d 183e 7eac a8bb
00000080: 1b5b 26be 8a2e 5f3d 73c5 003c 9896 273d
00000090: a2b5 1abe ac40 af3b 1f4f df3a ee68 b03d
000000a0: 3de8 813c 485f 3d3e de78 7abe 5226 103d
000000b0: bbd7 603d e036 333c 72d9 48bd cc8c 1d3d
000000c0: f98d 23bc 686d d53c 41e0 b83d b447 17be
000000d0: 13e4 2a3e e8ee 4ebe 82d7 f33d 728b 58bd
000000e0: b024 ea3b 8cda 7dbb 7933 d13d 537f 1fbd
000000f0: 2b2c aa3d 31cf d73d f6d0 4fbc 3f80 d9bb
00000100: 843a 623b 58a1 283c c44c 783c eaea 5d3d
00000110: cfd9 bc3d 7819 65bc d26a f83d 34e9 2aba
00000120: 062b a23d 629f 49be f2ce 613b 6d9f 503d
00000130: cbc0 d73c 3fae c13d 90e0 eb3d c134 273e
00000140: 08a9 e13d 07c8 343e 9630 8f3e 2e67 2d3b
00000150: 2a69 a33c 5fd8 9c3d b04e 833e eb24 483d
00000160: f6a0 2e3e a556 443d ca18 a7bc a342 8fba
00000170: 91af 613e 7f79 41bd e793 583d 684b a5be
00000180: 7d8a a93c 1a29 a9bb cfa1 843c 732e 743d
00000190: 389e 4d3e c505 7e3d 4f12 93bd ddb3 92bd
000001a0: a0c5 76bd f2d6 563e 2692 a63d 06d0 103e
000001b0: 2e95 4cbb 495d 1bbd 1820 f7ba d9e4 06be
000001c0: 91df 503d 89b0 1fbc 965a 0dbb 7f50 2dbe
000001d0: 013d 81ba cd0d 2b3e 29eb ac3d 5fe4 113e
000001e0: 41f4 023c 3406 50bc 65f1 093e 160d fa3c
000001f0: 576a 0abe ebd4 573e f0ea 8dbc e882 cbbb
-0.07801058 0.06415908 -0.21454906 0.06166879 0.082263865 -0.2997365 -0.18934013 0.008214209
-0.1475778 -0.0037073982 -0.026683938 0.026941681 -0.10634704 0.025161974 0.09731093 0.015073652
0.06972398 0.06615784 0.008400206 0.17680462 0.0063192444 0.063490756 0.05305043 0.13079478
-0.13199717 0.2648436 0.14748721 0.082962334 -0.0034638012 0.17573823 0.14873391 -0.005147516
-0.16245691 0.054487742 0.007859576 0.0409151 -0.1510835 0.0053482857 0.001703713 0.08613764
0.01585781 0.18493378 -0.2446017 0.035192795 0.054893237 0.010938376 -0.049035497 0.038464352
-0.009982579 0.026053146 0.09027148 -0.14773446 0.16688566 -0.20208323 0.11906339 -0.05286736
0.007145487 -0.0038735 0.10214896 -0.038939785 0.083092056 0.105375655 -0.0126840975 -0.0066376026
0.0034519741 0.010292374 0.015155021 0.05417911 0.09221231 -0.013983123 0.12129749 -0.00065197353
0.07918362 -0.19689706 0.0034455624 0.05093329 0.026337048 0.09457063 0.11517441 0.16328718
0.11018568 0.1765443 0.27966756 0.0026459205 0.019947607 0.07658457 0.2564597 0.048863333
0.17053589 0.047934193 -0.020397563 -0.0010929893 0.2203963 -0.04723501 0.052875426 -0.32284093
0.02069592 -0.0051623704 0.016190438 0.05961461 0.20079887 0.06201722 -0.071812265 -0.071632124
-0.060247064 0.20980433 0.08133344 0.14141855 -0.0031216848 -0.03793076 -0.0018854169 -0.13173236
0.05099446 -0.009746679 -0.0021568886 -0.16925238 -0.00098601 0.16704483 0.08443291 0.14247273
0.007992805 -0.012696791 0.13470991 0.030523818 -0.13517128 0.21077316 -0.017323941 -0.0062106736

sequential_2/conv2d_7/Conv2D/ReadVariableOp:0 f4 [48, 48, 5, 5]
00000000: 55e1 85bd 1146 26bd e7cd cbbd 7d5d 03bd
00000010: 3803 623d 7be7 c5bd 126a 35bd 2971 adbc
00000020: aa86 073d 9fd4 65bc 7d40 e5bc b0ae 833d
00000030: bf07 4d3d 3fe1 9dbc 3fa2 a4bb ef61 a53b
00000040: efaf a2ba 7509 f4bc 29ac 7dbd dbe3 aa3b
00000050: 105d fdbd c4bc 07be ae9d fcbc de70 2abb
00000060: aec3 d7bd 52d4 5bbd db00 0cbd d1ae 58bd
00000070: 38fc 04bc a938 7d3d dca8 3c3d c772 acbb
00000080: 5152 39bd 54a9 a4bc 4f57 f83d 3761 91bd
00000090: 81cf 09ba c1be a7bd 266b 5dbd f847 403d
000000a0: a314 4dbc 6093 08bc 0d79 37bc cf38 e4bd
000000b0: fd19 543d 3d05 383b 8c69 03bd 55f1 71bd
000000c0: 9701 81bc 78c1 b93d a3c9 83bd cbb9 ab3b
000000d0: 20df 64bd 86f1 30bd 867a 023b 4870 9bbc
000000e0: 564f a33c dd40 86bd 725d 14bd 2369 00bb
000000f0: f70f 2bbd 1557 ab3c bc60 073b e07a 563d
00000100: 629f 903c 568a a73c 5d45 f8bc 7433 493d
00000110: b04c 373d ceb8 193b b7d6 d8bc b82b bfbc
00000120: ab73 343d 2eab 973a 1552 ef3d da83 21bd
00000130: e37b 00be 34eb a7bc ba30 16be 10ca 0b3d
00000140: 475c 2fbe 67d1 efbd 0b20 98be c1ab 24be
00000150: 1b6e 47bc 9f68 ebbd df8f c4bd 72a3 1abe
00000160: ff67 f9bd 7685 0bbe 78fe 7cbd 28b8 d8bd
00000170: e400 05be a927 35be 2cbd d53c 0633 54bd
00000180: a2a5 1dbd 4473 1dbe 16a9 27be 232d bdbd
00000190: 23e8 a2bd d2ec 80bd 162d debd ebdf 40be
000001a0: 1389 40be 21b0 06be 1cd0 b6bd 69f0 9cbd
000001b0: d227 1dbe 866b 54be 9e05 32bd 56a3 e4bb
000001c0: 5807 a3bd 7e91 6abd 42eb 00be 9213 d63c
000001d0: 4aa0 b9bd f608 8abc 75a0 963c 1d1a 70bd
000001e0: b29f f2bd 2dfc 21be f76f fc3c bd7b eabd
000001f0: 0a02 2ebe 3320 e53c 5a1b 4ebd fdcf 7b3b
00000200: 2425 56bc 8b3a 1e3d 4ea3 c0bb 579f 573d
00000210: b6a7 853d b6ce f33d b54d 883d f4d3 dabc
00000220: f071 d33c a86c e23d 2e9a b93d d193 f4bb
00000230: 9b54 cebc 4e6b 9dbb 64d4 2b3d 3fd0 253d
00000240: 7f2e bd3d cd1d 14be 5979 053b e173 7a3b
00000250: 7c80 c9bc 756a a93d 8e7b a8bc 8cb9 d0bd
00000260: acf3 c7bd 9049 dbbd b03a 1cbd b776 0e3d
00000270: 61eb 39bd 7b5b f2bd 08dc 17bd d2da 19be
00000280: 2cb5 3c3b 9bc6 29bd b14b 6abd 62c1 b33b
00000290: 8845 54bc 0246 203a e7cd 8439 b0e7 8c3a
000002a0: 48ea 3b3d 0110 a93c 5b86 553d c4d0 753c
000002b0: 7e7d a33b 7b8e b73d 250b d73d a4b4 d93d
000002c0: c110 94bd 815f 43bd aa9f 913c 3d4b 823d
000002d0: 72c6 b13d 80a9 94bc f39b b63c ef0a 13bd
000002e0: d1b5 22bd a5c2 59bb 44f2 15be 4eff b8bc
000002f0: 266b edbd 760d a0bd 86fe 91bd 08dd 02be
00000300: 8825 edbd 5a86 2fbe ef38 e1bd 58b2 e9bd
00000310: a7ad 9dbd 80ff 86bd ac60 c7bd 726e d6bc
00000320: 38a6 313c 07ef 95bd dc12 f03d 3441 313e
00000330: cd14 053e e8b9 a03c 7a56 123d 09f5 5e3d
00000340: 6e78 123e d337 483b a7f9 c3bd 6c20 87bd
00000350: 47eb c13c 0eb4 df3c 7cef 683d 0464 5cbd
00000360: f981 c0bd 7e85 2dbd b5c3 2dbd d310 65bd
00000370: a6b8 c73c 6951 d4bd d1be dd3b 0dad 453d
00000380: 4ad9 9d3d 18b3 8bbe a934 e3bd 5a03 fabd
00000390: 38cf 01be 2569 ccbd 6655 7abe e757 29be
000003a0: 3956 71bd f5b4 b4bd 41da b13d d155 f0bd
000003b0: a851 53bd 69e8 35bc cb5b 983d 8fe6 433d
000003c0: 9ef1 d5bd ac61 9e3d b341 e1bc afc2 2b3d
000003d0: 2ea4 d63d af9c b13c 0aa8 5c3e 20bc 123d
000003e0: 44dc 973c 66df c3bb 8204 bd3c 3b91 87bb
000003f0: 41a5 4c3d 559e 48bd e451 86bd 335c cabc
-0.06537119 -0.040594164 -0.09951382 -0.03207158 0.05517885 -0.09663292 -0.04429061 -0.021172123
0.03308741 -0.014027744 -0.027984852 0.06429803 0.050056215 -0.019272445 -0.005024224 0.005047075
-0.0012412051 -0.029789666 -0.061931763 0.005215151 -0.12371266 -0.13255602 -0.030836906 -0.0026007215
-0.1053537 -0.05366928 -0.034180503 -0.052901093 -0.008116774 0.061821613 0.046059474 -0.005262706
-0.04524452 -0.020100273 0.12126028 -0.070986204 -0.0005257056 -0.0819068 -0.054057263 0.046943635
-0.012517127 -0.008335918 -0.011198294 -0.11143648 0.051782597 0.0028079294 -0.03208308 -0.059068043
-0.015747828 0.09070104 -0.064349435 0.005240654 -0.05587685 -0.043199085 0.0019909455 -0.018974438
0.019935291 -0.065553404 -0.03622193 -0.0019593916 -0.041763272 0.020915547 0.0020657023 0.052363276
0.017654125 0.020451706 -0.030306512 0.049121335 0.04475087 0.00234561 -0.026469572 -0.023336276
0.044055622 0.0011571401 0.11685578 -0.039432384 -0.12547259 -0.020497896 -0.14667025 0.03412825
-0.17125045 -0.11709862 -0.29711947 -0.16081144 -0.012172247 -0.11494564 -0.09597754 -0.15101412
-0.12178039 -0.1362513 -0.061766118 -0.10582 -0.12988621 -0.1769091 0.02609118 -0.051806472
-0.038488038 -0.15376002 -0.16373095 -0.09237125 -0.07954433 -0.0629517 -0.10848443 -0.18835418
-0.1880229 -0.13153125 -0.089264125 -0.07663042 -0.15347221 -0.20744142 -0.04346239 -0.006977479
-0.07960385 -0.05726766 -0.12589744 0.026132379 -0.09063776 -0.016849976 0.018387059 -0.058618654
-0.11846866 -0.15818854 0.030815108 -0.114493825 -0.16992965 0.027969455 -0.050319053 0.0038423531
-0.013070378 0.03863005 -0.0058788424 0.052642193 0.06526129 0.11904661 0.066554464 -0.026712395
0.025811166 0.11055881 0.090626106 -0.00746391 -0.025186827 -0.0048040515 0.0419506 0.040481802
0.09237384 -0.14464493 0.0020366518 0.0038216042 -0.024597399 0.08272258 -0.020566728 -0.1019164
-0.097632736 -0.1070739 -0.038141906 0.034781184 -0.04539049 -0.11833855 -0.037075073 -0.1502488
0.002879451 -0.04144917 -0.05720109 0.0054856995 -0.012956031 0.00061139476 0.0002533041 0.0010750201
0.045877725 0.020637514 0.052130084 0.015003387 0.004989325 0.08962723 0.105001725 0.106301576
-0.07229758 -0.0476985 0.01777633 0.06362007 0.086804286 -0.01814723 0.02229116 -0.0358991
-0.039724175 -0.003322759 -0.14643198 -0.022582676 -0.115927026 -0.078150675 -0.071286246 -0.12779629
-0.11579424 -0.17141095 -0.10997187 -0.114109695 -0.07699137 -0.065917015 -0.097352356 -0.026175711
0.010842852 -0.073209815 0.11722347 0.1731003 0.12996216 0.019619897 0.035727 0.054432902
0.14303753 0.0030550852 -0.09569102 -0.06597981 0.02367176 0.027307536 0.056869015 -0.05380632
-0.0939979 -0.042363636 -0.04242297 -0.055924248 0.02438004 -0.1036709 0.006767132 0.048260737
0.0770746 -0.27285075 -0.110940285 -0.122076705 -0.12676704 -0.09980992 -0.2444664 -0.16537438
-0.05892012 -0.08823577 0.08684207 -0.11735118 -0.051591545 -0.011102774 0.07439383 0.0478273
-0.104464754 0.07733473 -0.027497148 0.04193371 0.104805335 0.021681158 0.21548477 0.03582394
0.018537648 -0.005977559 0.023073439 -0.004137186 0.049962286 -0.048979122 -0.06558588 -0.024702167

sequential_2/conv2d_7/BiasAdd/ReadVariableOp:0 f4 [48]
00000000: 75fe ca3c 2b3a cdbc c374 953c 0f62 1a3d
00000010: 7db8 613d 8b3b 053d 6569 23bd 149a 953d
00000020: bcdc 313d 463d 703d 37b0 a9ba 1b71 013c
00000030: cf7d c0bc 7f9a 8b3c ba7f c9b9 f733 8ebc
00000040: 50e3 a43d 8663 f2bc a98f 2abd c948 a93d
00000050: fd39 ac3d ebcc 88bc bf75 debc e765 a53d
00000060: 9d39 16bd 8e8f 89bd 905d 46bb 7f3b 8f3d
00000070: 9608 b0bc 46f2 bd3d dde6 5bbc 169a f5bc
00000080: e235 ee3c 5f44 19bd 5cb2 9a3d b26e fb3c
00000090: a4dd e73c 8719 1bbc 09b8 5abc 338f 16bd
000000a0: e1dd 1bbd e5c0 e8bc cd34 863c 406b 9a3d
000000b0: d57e 68bb 67ab debb d19f d53d ffc5 3cbd
0.024779538 -0.02505215 0.018244153 0.037691172 0.055107582 0.032527488 -0.039895434 0.07304779
0.0434234 0.058652185 -0.0012946193 0.007900502 -0.02349749 0.017041443 -0.0003843287 -0.017358763
0.08051169 -0.029588472 -0.04164091 0.08265836 0.08409498 -0.016699275 -0.027155755 0.08076077
-0.036676038 -0.06716834 -0.003026817 0.0699377 -0.02148847 0.092747256 -0.013421741 -0.0299807
0.029078428 -0.03741872 0.075535506 0.030692432 0.028303929 -0.009466535 -0.013349541 -0.03675766
-0.038053397 -0.028412292 0.0163826 0.075399876 -0.0035475988 -0.006795335 0.10430873 -0.04608726

sequential_2/conv2d_6/Conv2D/ReadVariableOp:0 f4 [48, 32, 5, 5]
00000000: 1ea9 3bbd ba82 7dbd 1089 6cbd cf70 adbd
00000010: 5917 923c 5360 c1bd f644 0ebe b939 f5bd
00000020: 08e4 e2bd 844b 27bd 0713 58bc bf69 26bc
00000030: e0fc a6bd 9acc 37bc 9912 abbd 2905 243d
00000040: 1303 0fbc 7170 c2bd 1f00 77bd 88bc 1abd
00000050: 5d76 313d 12b2 99bd be93 06bd a88a 56bc
00000060: b373 85bd f6ea c8bc e722 7e3d c444 603d
00000070: 8c29 1abd 6e26 683b 1b77 de3c 4c1f 2c3d
00000080: 75cf 2dbd bf4e 713d 8cb7 a83d 13cd a53d
00000090: a67d cabc a8cc 343d 2b62 763d 4e19 2cbd
000000a0: 74b7 773b f27d 873d 06e2 e33d c2dd 5a3d
000000b0: 24e8 883c 8121 26bc 1e1c b03d ae2d 11bc
000000c0: 61f8 423b 22a8 6bbc 6af3 613d b961 723d
000000d0: e6df 1e3e 0a62 c03d 4f68 853d 8740 cd3d
000000e0: 66c3 6c3d 6f98 953d df55 8a3c a22c b43a
000000f0: 77a4 b0bc 40aa 803d e896 9f3d 0d47 923d
00000100: 07c4 513c e6a2 853c f04f 9f3d 97af 61bc
00000110: 8f5b 553d 467d 853d 8903 5b3c a333 4d3d
00000120: 5596 d23c 03de 063d aa36 983d b35d aabc
00000130: e2fa 723c 6701 48bd f493 71bd fe1e 103d
00000140: fed8 333d 0b82 4b3d 3f79 d73b fa6b ea3c
00000150: b7c0 1a3d c93a 5ebd e1a0 9abc 4ec8 2dbc
00000160: d747 133c c33d c23c 7e41 dfbd 22f4 a3bb
00000170: da7f 20bd b0f1 ea3b 3d61 373d f147 d1bd
00000180: 4c74 19bd 74ab b3bd 5d6b 463d d3a5 52bc
00000190: 31a6 31bd 5dd1 19bd 1c71 41bd 1544 a1bc
000001a0: a8c3 0dbd 5d46 07bb 5f07 83bb 2b8c 85bd
000001b0: f184 133c ef6d 7dbd 7e1e d23a 7d4c 4ebc
000001c0: 9916 e6bc e76d cebc 67e8 4ebd 6baf c0bc
000001d0: 89b0 8fbd 6ea8 83bd a0a5 9ebc e3ca 793c
000001e0: 54a0 03bd a211 87bd 0830 d7bd 843b 2fbd
000001f0: 6908 b7bd d08b 4ebd f1b4 8c3d d6a5 813d
00000200: 34e7 f23c 8268 24bc 4a99 aebd 27d7 21bd
00000210: 6421 2ebd 35a1 06be 0935 38bd 629c 93bd
00000220: 62f0 53bc a050 edbd 48ed 51bd 4d94 b9bd
00000230: 4cd9 f0bc ae67 d3bd f6d2 91bc cfa8 c93c
00000240: 5f40 c23b e109 35bc 89d7 053c ad1d 8dbc
00000250: 2a66 6239 c668 633d 5778 663d a43d 053d
00000260: efd4 933c d5d9 e73b aabb 3c3d 62d2 5ebd
00000270: f64f 90bd e361 a2bd 7b2b 9f3c e693 85bd
00000280: a1c9 8ebd 8808 9dbd 9cae 52bd 4641 ebbd
00000290: 9f7b 90bc 24b4 f3bd 7af7 2eba a5ac dabd
000002a0: 3757 75bd 0fe1 aabc 7161 adbd e7ba 7abb
000002b0: 77c6 11bc 7adb cf3b 9c58 29bc 190d aebd
000002c0: 6080 e8bc 644e cebd 2880 7ebd c027 63bc
000002d0: b2a8 d8bc 5e47 29bd 879e 8bbd ff6b 7d3c
000002e0: 1182 533c ea3f 99bd c095 c1bd 6d60 44bd
000002f0: 5c46 283c 80e4 62bd a7d1 94bd 054d 5abd
00000300: 9b94 c5bd b848 973c 6ec4 27bc ebec c2bd
00000310: b2cc a1bd f3af 40bd 0329 a43c cd2e aabc
00000320: 345f c0bb a719 be3d ee3d 5f3d f183 863d
00000330: bb65 153b 5a3e 0b3d 549b bebc 667d 0f3d
00000340: 15d5 08bc 13dd 25bd 8db8 843d eac6 6c3d
00000350: 66d2 603d c4e9 903d 2128 b3bd aae1 073b
00000360: 952c 0c3d 9a29 0abd db2c a53d 186a 88bc
00000370: 6366 5e3d e699 4ebd 04a9 313d 8ad9 923d
00000380: 63d4 92bc 7f35 113d 4bbf 9a3d d5b0 863d
00000390: faeb 703c 149e f43d ee57 903d 44fa a03d
000003a0: 3fef 373d 98e5 e03c 3768 5f3d e4aa 803d
000003b0: 394a 1b3d 83b5 c1bd 8aa7 4cbc 5422 1c3d
000003c0: 20f6 c3bd d01c 10bb bebc 7ebc f3cb 6fbb
000003d0: 307d 41bd 2870 debc 8e12 95bd ddc1 ddbb
000003e0: 5639 1b3d c187 b63d 3cda 003d 9f80 ce3c
000003f0: d8a7 3b3d 15d8 2f3d 61d4 4ebb 08cc c73c
-0.04581558 -0.06189225 -0.0577479 -0.08468782 0.017833399 -0.094422005 -0.13893494 -0.119739
-0.1107865 -0.0408435 -0.01318813 -0.010157048 -0.08153701 -0.011218214 -0.083531566 0.040043984
-0.00872876 -0.09494103 -0.06030285 -0.037777454 0.04332577 -0.07504667 -0.03285574 -0.013094582
-0.065162085 -0.0245261 0.062045004 0.05475308 -0.03763728 0.0035423297 0.027156403 0.042022035
-0.042434175 0.05891299 0.08238134 0.080957554 -0.024718117 0.044140488 0.060152214 -0.04201632
0.0037798556 0.06615819 0.11127095 0.05343414 0.016712256 -0.010139824 0.08599113 -0.008860989
0.0029750096 -0.014383348 0.05516378 0.059175227 0.15515098 0.093936995 0.06514036 0.10022073
0.057803534 0.07304465 0.01688665 0.0013746212 -0.021562798 0.062824726 0.07792455 0.07142458
0.012803084 0.016313028 0.07778919 -0.013774774 0.05208927 0.06518035 0.013367542 0.050098073
0.02570645 0.03292657 0.07432301 -0.020796632 0.014830323 -0.048829462 -0.05897899 0.035185806
0.04390811 0.049684566 0.006575733 0.02861594 0.037781443 -0.05425528 -0.018875541 -0.010606838
0.008989296 0.02371109 -0.109011635 -0.005003468 -0.03918443 0.0071699247 0.044770468 -0.102188
-0.037464425 -0.087729365 0.048442233 -0.012856918 -0.043371383 -0.03755318 -0.04722701 -0.019685784
-0.03461042 -0.0020641305 -0.0039986814 -0.065208755 0.009003864 -0.06187242 0.0016030816 -0.012591478
-0.028086947 -0.02519889 -0.050514605 -0.023521146 -0.07016093 -0.0642861 -0.019366086 0.015246126
-0.032135323 -0.0659516 -0.10507208 -0.042781368 -0.08937151 -0.050426304 0.06870449 0.06330459
0.029651262 -0.010034682 -0.08525331 -0.039511826 -0.042512313 -0.13147433 -0.044972453 -0.07207562
-0.01293573 -0.115876436 -0.05125168 -0.09061489 -0.02940049 -0.1032251 -0.01780079 0.024616627
0.005928084 -0.011049719 0.008169063 -0.017226065 0.00021591099 0.05551984 0.05626711 0.03252949
0.01804587 0.007075528 0.046077408 -0.054399855 -0.07046501 -0.07928827 0.019429913 -0.0652235
-0.069720514 -0.07667643 -0.05143605 -0.11487059 -0.017637072 -0.118995935 -0.000667445 -0.106774606
-0.059897628 -0.02085927 -0.08465851 -0.0038258375 -0.008897415 0.0063433023 -0.0103360675 -0.08498592
-0.028381526 -0.100735456 -0.062133938 -0.013864458 -0.026447628 -0.041327827 -0.06817346 0.015467643
0.012909428 -0.07482894 -0.09452391 -0.04794352 0.010270681 -0.055393696 -0.072665505 -0.053296108
-0.09647485 0.018467292 -0.010239704 -0.09517845 -0.07900371 -0.0470428 0.020039087 -0.02077427
-0.005870724 0.092822365 0.05450242 0.065681346 0.0022796232 0.03399501 -0.023267426 0.0350317
-0.008351584 -0.040494036 0.06480513 0.057806887 0.05488815 0.07075837 -0.08747888 0.0020733871
0.034222204 -0.03373108 0.08065196 -0.016652152 0.054296862 -0.050439738 0.043374076 0.071703985
-0.01792354 0.03545141 0.075560175 0.06576697 0.014704699 0.119442135 0.07048021 0.078602344
0.044905897 0.027453229 0.054542746 0.06282595 0.03791258 -0.09458449 -0.012491116 0.038118675
-0.09568429 -0.002198983 -0.015547929 -0.003659007 -0.04723853 -0.02715309 -0.0727893 -0.006767495
0.037896477 0.08912612 0.031458125 0.025207816 0.045814365 0.04293068 -0.0031559693 0.024389282

sequential_2/conv2d_6/BiasAdd/ReadVariableOp:0 f4 [48]
00000000: 6724 053c 516e 2fbc f441 a9bc 5d63 033d
00000010: 36a8 7dbd 8c0c 3b3d f675 edbc 6326 90bc
00000020: b9fc 8fbc 9716 81bc ebfb 0f3c d15b 573c
00000030: ff51 59bd 9131 ac3d 34b8 75bc ef71 4f3d
00000040: 77b7 6c3d 5218 44bc 9562 8d3c 92a0 07bd
00000050: f24a 103d 62ec 26bd f356 a3bc c795 a13b
00000060: 861c 1abc b63b 9bbc d41c d7bc 515c 8f3d
00000070: 273e 2d3d 97ba a0bc 8daf 57bd 91e9 30bc
00000080: 7d63 77bd a89a bcbc 5380 bfb9 9498 3b3b
00000090: 6812 d8bc 26ca c63c 185c 0bbd 35c2 65bc
000000a0: dd4c df3c 4939 87bd d0b9 47bd e875 1f3d
000000b0: 67bc 96bc a31a bbbc a3b5 a0bc d9f5 b6bc
0.008126355 -0.010707454 -0.020661332 0.032077182 -0.061927997 0.045666263 -0.028986912 -0.01759643
-0.017576562 -0.015757842 0.008788089 0.013144449 -0.053056713 0.084078915 -0.014997531 0.050645765
0.057792153 -0.011968689 0.017258922 -0.033112116 0.035227723 -0.040752776 -0.019938922 0.004931185
-0.009406215 -0.01894937 -0.026258864 0.0700003 0.0422956 -0.019620223 -0.052657653 -0.010797874
-0.060397614 -0.023022965 -0.00036525968 0.002862488 -0.026375964 0.024266314 -0.034023374 -0.014023353
0.027258331 -0.06602723 -0.04876119 0.038930804 -0.018400384 -0.02283985 -0.019617861 -0.022334026

sequential_2/conv2d_5/Conv2D/ReadVariableOp:0 f4 [32, 3, 5, 5]
00000000: 5bbf 113d 2cb3 cf3d e2d6 58bc 878b da3d
00000010: 2f86 c73c 5373 a83d 2d69 8a3d 40d2 db3d
00000020: eb3e ab3c bc63 833d 7dd4 b93d 81fd 7a3d
00000030: 19a3 c03d 2493 533d ef14 213d 1050 353d
00000040: 6ac2 77bb 7e44 853d b6ef 5a3d 427c 3b3d
00000050: dbc9 6d3c 49ab bd3d 48cd d13b 5d58 e23d
00000060: 06d3 f23b bab9 30be b960 6bbe 042d 4cbe
00000070: 54da 13be dd36 39be 7364 54be 1f85 2bbe
00000080: 04c8 6cbe 529b 25be d85f 02be ec07 45be
00000090: 582a 08be f3b5 c3bd 0475 29be ab49 83bd
000000a0: 5e3b 463c c89b 7ebd bd50 18be da74 88bb
000000b0: 5401 0d3d cca1 a33c 4068 aabd e5d6 1d3d
000000c0: 8041 54bd b2b2 a23d 73da 2abd 1d81 8dbc
000000d0: 0f1b e7bc 8370 bebd d6b8 27bd 553e b6bc
000000e0: 9f47 a2bd a5e5 bcbd c03e 52bd a4bf 25bd
000000f0: 471d ddbd 050d 4abd a953 563b 7c2d 75bd
00000100: 4d55 c2bb 07be 4cbd 4927 87bd 4a0d c93b
00000110: 2ced 513d be42 36bd 700e ce3c ab24 b13d
00000120: aff8 933d d01f 7e3b 469c fc3c 55c4 823d
00000130: 9295 f23c 811f cdbd 5591 babd d2d1 133d
00000140: 9ef3 a73c d70a 6bbc 1348 77bd 0937 a03d
00000150: 9f63 99bd dfbf 01be 8684 6fbc 2c67 2f3b
00000160: d446 8cbd b268 d2bd 6356 b53b bdd1 e5b8
00000170: d5f1 0fbe 847c ef37 4dde 7f3d 5262 c93d
00000180: 4f78 a73d 8508 d7bd 12eb b13c b844 e33c
00000190: edf3 8e3b 3990 223d cc59 bb3c 04b1 ab3c
000001a0: 7881 0d3c 079d f13d f094 873d 02d4 f6bc
000001b0: 3d48 14bc 840a e13c 6cd7 debd 040f d8bd
000001c0: dd89 47bd 21b5 aebd 326c c0bd 7a5c cabc
000001d0: 92aa dabd 1f3b cebd fa71 153d 8edb 133d
000001e0: b017 1bbc 0b10 4a3c e6b3 9cbc e91c 9b3d
000001f0: 7b62 5e3c 69dc ffbc e8a6 b33b ac02 05bd
00000200: 6645 95bd 69bd babd 238b 4ebd bfeb 01bc
00000210: d56e ad3c df8b 20bc c1a9 10bd 7011 a0bc
00000220: d888 cbbd 3e08 8dbd f427 abbc 703a 5bbd
00000230: 8ef4 90bd 8407 d1bd 3584 35bd 41b1 ab3d
00000240: 474a 90bd 508a d53d 1ed6 003d b394 3ebd
00000250: 6320 d23d 4d11 eabb 4d69 0a3d 6fab 6abd
00000260: 87ad 2e3d e9fc bd3d a696 493d dda2 283c
00000270: f1d6 b4bc faed d5bd 1cb8 4fbc c68b 87bc
00000280: 1c3f e23d 31ed 7a3c 0c02 373d 747a f53c
00000290: bfe1 863b 1571 063c 95fb fe3b 75ea 93bd
000002a0: 4e51 9b3d 3ad0 173d 552f 5ebd 5534 cbbd
000002b0: 4671 21bd 67d4 823d d032 68bd 5176 da3d
000002c0: e1af 5ebd 81ba ae3d 28c2 2d3d e32e 5a3d
000002d0: 1d3a 9d3d 0a80 4d3d 5c2d 9437 8281 943d
000002e0: c3a8 cb3b 692a 143e 1845 a43c 860e 6fbd
000002f0: 35ca dc3d 755e cf3d 266d 3bbc aa1a 653b
00000300: 2626 00bd 7774 a03d 2855 5e3c 05d2 9f3d
00000310: 96d8 b1b8 d773 913c 935c 81bc 9d57 afbd
00000320: b738 12bd dc06 3ebd eed1 2ebc 8955 15bd
00000330: 07f6 e4bd 69ef 1c3c 7f77 0ebe 8d51 03be
00000340: 922d bdbc e48f 0fbe 1617 ae3d fde3 103c
00000350: 7df4 06be 6342 ddbc d902 bdbc bed0 96bd
00000360: 7f16 3bbb d057 493b 788d 853d ac74 45bd
00000370: e668 b6bb 116b c6bd 5600 b1bd a598 a83d
00000380: f492 a1bd 4a97 b4bd f6e0 3fbe c955 23be
00000390: 40ad efbb 2ecc e23d 0513 893d a086 6a3d
000003a0: e85e 2fbe 71e8 6bbd 2600 d93d 16ff bd3d
000003b0: 5ac6 2a3c de9c c4bd b0f2 58bb 6841 67bd
000003c0: 6c74 033e 1610 3bbd b6a5 26be 7b37 3dbd
000003d0: 46a0 ac3c 7cc2 de3d a034 e43d ff3a aabd
000003e0: 657e 253d a7e4 273e 0bce 6abd 9cb1 8ebd
000003f0: 22c6 0bbe 1fa0 513c 4272 b43d 1d5f b03d
0.03558288 0.10141596 -0.013234826 0.10671144 0.024355976 0.08225121 0.06758342 0.107334614
0.020904025 0.06415507 0.09073732 0.061276916 0.094061084 0.051653996 0.039326604 0.044265807
-0.0037805089 0.065072045 0.053451262 0.0457728 0.014513458 0.09261186 0.0064026453 0.1105201
0.00741041 -0.17258349 -0.22986116 -0.19939047 -0.14438754 -0.18087335 -0.20741443 -0.1675
-0.23123175 -0.16172531 -0.12731874 -0.19241303 -0.13297403 -0.095561884 -0.16548544 -0.064105354
0.012099115 -0.062160283 -0.14874549 -0.0041643204 0.034425095 0.019974612 -0.08320665 0.038535018
-0.05182028 0.0794424 -0.041712236 -0.01727348 -0.028211145 -0.09298804 -0.040947758 -0.02224652
-0.07923817 -0.09223489 -0.051329374 -0.040465966 -0.107966 -0.049328823 0.0032703674 -0.05985783
-0.005930579 -0.04998591 -0.0659929 0.0061356174 0.051251575 -0.044497244 0.025153369 0.08649572
0.07225167 0.0038776286 0.030836236 0.063851036 0.029612336 -0.100157745 -0.09109751 0.036088772
0.020501908 -0.014345846 -0.06037147 0.07822997 -0.07489704 -0.1267085 -0.014618998 0.0026764376
-0.06849447 -0.10273875 0.0055339797 -0.00010958638 -0.14057095 2.8549002e-05 0.062467862 0.09833206
0.08177244 -0.10499672 0.021718536 0.027742729 0.0043625743 0.039688323 0.022869967 0.020958431
0.008636825 0.11797529 0.066202044 -0.03013039 -0.009050426 0.027470835 -0.10880932 -0.10549739
-0.04871546 -0.08530641 -0.093956366 -0.0247023 -0.10677065 -0.1006987 0.03648565 0.036098056
-0.009466097 0.0123329265 -0.019128751 0.075738735 0.013573284 -0.03123303 0.0054825433 -0.03247325
-0.07288627 -0.09118158 -0.05042566 -0.007929741 0.021171013 -0.009798973 -0.03531814 -0.019539565
-0.0993821 -0.06886338 -0.020893075 -0.053522527 -0.07077895 -0.102065116 -0.044315536 0.08383418
-0.07045417 0.10426772 0.031454198 -0.04652853 0.102600835 -0.0071431757 0.03379183 -0.057292398
0.042645957 0.092767544 0.049215935 0.010292736 -0.022075148 -0.10445781 -0.012678172 -0.016546141
0.110471934 0.01531534 0.044679686 0.029965617 0.0041162665 0.008205672 0.0077814558 -0.072224535
0.07583867 0.037063815 -0.054244358 -0.09922091 -0.039414667 0.06388169 -0.056689084 0.10667098
-0.05436695 0.085316665 0.04242149 0.05326737 0.076771 0.050170936 1.7664097e-05 0.07251264
0.0062151863 0.14469303 0.020052478 -0.05836346 0.107807554 0.10125438 -0.011439597 0.003495852
-0.03128638 0.07834714 0.0135701075 0.0780373 -8.48036e-05 0.017755432 -0.015791213 -0.08561633
-0.03569862 -0.04639326 -0.010670168 -0.036458526 -0.111797385 0.009578564 -0.13912772 -0.12824078
-0.023093019 -0.14019734 0.08500497 0.008843419 -0.13179202 -0.027009195 -0.023072647 -0.07364033
-0.0028547344 0.0030722506 0.06521124 -0.04820697 -0.005566704 -0.0968839 -0.08642642 0.0823224
-0.07889357 -0.088179186 -0.1873816 -0.15950693 -0.007314354 0.110741004 0.06693081 0.057257295
-0.17126048 -0.05759472 0.105957314 0.092771694 0.010423267 -0.096002325 -0.0033103637 -0.05645886
0.1283738 -0.045669638 -0.16274151 -0.04619549 0.021072518 0.10876939 0.1114285 -0.08312034
0.040403742 0.16395818 -0.057325404 -0.0696747 -0.136498 0.0127945235 0.088108554 0.086118914

sequential_2/conv2d_5/BiasAdd/ReadVariableOp:0 f4 [32]
00000000: c118 bd3d 854c 6ebc 0959 2b3d bb33 033d
00000010: 0a47 7a3c fd0f 0bbe a453 eebc 3c68 ec3d
00000020: cfa9 813c 262e efbb 3533 43bc 8ca3 9cba
00000030: f46e e5bc 4ad1 8c3d ba84 e23b 76d2 db3c
00000040: eddd 453b aa4b ac3d 852d a2bc c7b3 c03d
00000050: 240b 943c 94cc 12bd ed99 da3b e23d 343d
00000060: e3d4 4e3c be9d cd3c 9a15 23bc be64 df3d
00000070: 81fb b63c dd8e c23b 1e94 023c 7730 913c
0.09233237 -0.014544611 0.041832957 0.032031756 0.015275726 -0.13580318 -0.029092617 0.11543319
0.015828041 -0.0072992025 -0.011914064 -0.0011950596 -0.028007008 0.06875856 0.006912795 0.026833754
0.0030192093 0.08412869 -0.019797096 0.0940929 0.018071719 -0.035839632 0.0066711814 0.04400433
0.012623998 0.025099631 -0.009953881 0.10907887 0.022336723 0.005937441 0.007969884 0.017723305
